…
wandb:  $ pip install wandb --upgrade
wandb: Tracking run with wandb version 0.13.10
wandb: Run data is saved locally in /local/a/jgammell/dlsca_architecture_comparison/wandb/run-20230608_163259-4npkr8kq
wandb: Run `wandb offline` to turn off syncing.
wandb: Syncing run astral-sweep-2
wandb: ⭐️ View project at https://wandb.ai/jgammell/ascad_vgg__sam
wandb: 🧹 View sweep at https://wandb.ai/jgammell/ascad_vgg__sam/sweeps/do4w15f0
wandb: 🚀 View run at https://wandb.ai/jgammell/ascad_vgg__sam/runs/4npkr8kq
Training classifier...
VGG(
  (fe): Sequential(
    (0): Dropout(p=0.0, inplace=False)
    (1): Conv1d(1, 64, kernel_size=(11,), stride=(1,), padding=(5,))
    (2): ReLU(inplace=True)
    (3): AvgPool1d(kernel_size=(2,), stride=(2,), padding=(0,))
    (4): Conv1d(64, 128, kernel_size=(11,), stride=(1,), padding=(5,))
    (5): ReLU(inplace=True)
    (6): AvgPool1d(kernel_size=(2,), stride=(2,), padding=(0,))
    (7): Conv1d(128, 256, kernel_size=(11,), stride=(1,), padding=(5,))
    (8): ReLU(inplace=True)
    (9): AvgPool1d(kernel_size=(2,), stride=(2,), padding=(0,))
    (10): Conv1d(256, 512, kernel_size=(11,), stride=(1,), padding=(5,))
    (11): ReLU(inplace=True)
    (12): AvgPool1d(kernel_size=(2,), stride=(2,), padding=(0,))
    (13): Conv1d(512, 512, kernel_size=(11,), stride=(1,), padding=(5,))
    (14): ReLU(inplace=True)
    (15): AvgPool1d(kernel_size=(2,), stride=(2,), padding=(0,))
    (16): Flatten(start_dim=1, end_dim=-1)
  )
  (pre_head): Sequential(
    (0): Flatten(start_dim=1, end_dim=-1)
    (1): Linear(in_features=10752, out_features=4096, bias=True)
    (2): ReLU(inplace=True)
    (3): Dropout(p=0.0, inplace=False)
    (4): Linear(in_features=4096, out_features=4096, bias=True)
    (5): ReLU(inplace=True)
    (6): Dropout(p=0.0, inplace=False)
  )
  (heads): ModuleDict(
    (bytes_2): Linear(in_features=4096, out_features=256, bias=True)
  )
)
Number of parameters: 66652544
Training classifier...
VGG(
  (fe): Sequential(
    (0): Dropout(p=0.0, inplace=False)
    (1): Conv1d(1, 64, kernel_size=(11,), stride=(1,), padding=(5,))
    (2): ReLU(inplace=True)
    (3): AvgPool1d(kernel_size=(2,), stride=(2,), padding=(0,))
    (4): Conv1d(64, 128, kernel_size=(11,), stride=(1,), padding=(5,))
    (5): ReLU(inplace=True)
    (6): AvgPool1d(kernel_size=(2,), stride=(2,), padding=(0,))
    (7): Conv1d(128, 256, kernel_size=(11,), stride=(1,), padding=(5,))
    (8): ReLU(inplace=True)
    (9): AvgPool1d(kernel_size=(2,), stride=(2,), padding=(0,))
    (10): Conv1d(256, 512, kernel_size=(11,), stride=(1,), padding=(5,))
    (11): ReLU(inplace=True)
    (12): AvgPool1d(kernel_size=(2,), stride=(2,), padding=(0,))
    (13): Conv1d(512, 512, kernel_size=(11,), stride=(1,), padding=(5,))
    (14): ReLU(inplace=True)
    (15): AvgPool1d(kernel_size=(2,), stride=(2,), padding=(0,))
    (16): Flatten(start_dim=1, end_dim=-1)
  )
  (pre_head): Sequential(
    (0): Flatten(start_dim=1, end_dim=-1)
    (1): Linear(in_features=10752, out_features=4096, bias=True)
    (2): ReLU(inplace=True)
    (3): Dropout(p=0.0, inplace=False)
    (4): Linear(in_features=4096, out_features=4096, bias=True)
    (5): ReLU(inplace=True)
    (6): Dropout(p=0.0, inplace=False)
  )
  (heads): ModuleDict(
    (bytes_2): Linear(in_features=4096, out_features=256, bias=True)
  )
)
Number of parameters: 66652544
Training classifier...
VGG(
  (fe): Sequential(
    (0): Dropout(p=0.0, inplace=False)
    (1): Conv1d(1, 64, kernel_size=(11,), stride=(1,), padding=(5,))
    (2): ReLU(inplace=True)
    (3): AvgPool1d(kernel_size=(2,), stride=(2,), padding=(0,))
    (4): Conv1d(64, 128, kernel_size=(11,), stride=(1,), padding=(5,))
    (5): ReLU(inplace=True)
    (6): AvgPool1d(kernel_size=(2,), stride=(2,), padding=(0,))
    (7): Conv1d(128, 256, kernel_size=(11,), stride=(1,), padding=(5,))
    (8): ReLU(inplace=True)
    (9): AvgPool1d(kernel_size=(2,), stride=(2,), padding=(0,))
    (10): Conv1d(256, 512, kernel_size=(11,), stride=(1,), padding=(5,))
    (11): ReLU(inplace=True)
    (12): AvgPool1d(kernel_size=(2,), stride=(2,), padding=(0,))
    (13): Conv1d(512, 512, kernel_size=(11,), stride=(1,), padding=(5,))
    (14): ReLU(inplace=True)
    (15): AvgPool1d(kernel_size=(2,), stride=(2,), padding=(0,))
    (16): Flatten(start_dim=1, end_dim=-1)
  )
  (pre_head): Sequential(
    (0): Flatten(start_dim=1, end_dim=-1)
    (1): Linear(in_features=10752, out_features=4096, bias=True)
    (2): ReLU(inplace=True)
    (3): Dropout(p=0.0, inplace=False)
    (4): Linear(in_features=4096, out_features=4096, bias=True)
    (5): ReLU(inplace=True)
    (6): Dropout(p=0.0, inplace=False)
  )
  (heads): ModuleDict(
    (bytes_2): Linear(in_features=4096, out_features=256, bias=True)
  )
)
Number of parameters: 66652544
Training classifier...
VGG(
  (fe): Sequential(
    (0): Dropout(p=0.0, inplace=False)
    (1): Conv1d(1, 64, kernel_size=(11,), stride=(1,), padding=(5,))
    (2): ReLU(inplace=True)
    (3): AvgPool1d(kernel_size=(2,), stride=(2,), padding=(0,))
    (4): Conv1d(64, 128, kernel_size=(11,), stride=(1,), padding=(5,))
    (5): ReLU(inplace=True)
    (6): AvgPool1d(kernel_size=(2,), stride=(2,), padding=(0,))
    (7): Conv1d(128, 256, kernel_size=(11,), stride=(1,), padding=(5,))
    (8): ReLU(inplace=True)
    (9): AvgPool1d(kernel_size=(2,), stride=(2,), padding=(0,))
    (10): Conv1d(256, 512, kernel_size=(11,), stride=(1,), padding=(5,))
    (11): ReLU(inplace=True)
    (12): AvgPool1d(kernel_size=(2,), stride=(2,), padding=(0,))
    (13): Conv1d(512, 512, kernel_size=(11,), stride=(1,), padding=(5,))
    (14): ReLU(inplace=True)
    (15): AvgPool1d(kernel_size=(2,), stride=(2,), padding=(0,))
    (16): Flatten(start_dim=1, end_dim=-1)
  )
  (pre_head): Sequential(
    (0): Flatten(start_dim=1, end_dim=-1)
    (1): Linear(in_features=10752, out_features=4096, bias=True)
    (2): ReLU(inplace=True)
    (3): Dropout(p=0.0, inplace=False)
    (4): Linear(in_features=4096, out_features=4096, bias=True)
    (5): ReLU(inplace=True)
    (6): Dropout(p=0.0, inplace=False)
  )
  (heads): ModuleDict(
    (bytes_2): Linear(in_features=4096, out_features=256, bias=True)
  )
)
Number of parameters: 66652544
Training classifier...
VGG(
  (fe): Sequential(
    (0): Dropout(p=0.0, inplace=False)
    (1): Conv1d(1, 64, kernel_size=(11,), stride=(1,), padding=(5,))
    (2): ReLU(inplace=True)
    (3): AvgPool1d(kernel_size=(2,), stride=(2,), padding=(0,))
    (4): Conv1d(64, 128, kernel_size=(11,), stride=(1,), padding=(5,))
    (5): ReLU(inplace=True)
    (6): AvgPool1d(kernel_size=(2,), stride=(2,), padding=(0,))
    (7): Conv1d(128, 256, kernel_size=(11,), stride=(1,), padding=(5,))
    (8): ReLU(inplace=True)
    (9): AvgPool1d(kernel_size=(2,), stride=(2,), padding=(0,))
    (10): Conv1d(256, 512, kernel_size=(11,), stride=(1,), padding=(5,))
    (11): ReLU(inplace=True)
    (12): AvgPool1d(kernel_size=(2,), stride=(2,), padding=(0,))
    (13): Conv1d(512, 512, kernel_size=(11,), stride=(1,), padding=(5,))
    (14): ReLU(inplace=True)
    (15): AvgPool1d(kernel_size=(2,), stride=(2,), padding=(0,))
    (16): Flatten(start_dim=1, end_dim=-1)
  )
  (pre_head): Sequential(
    (0): Flatten(start_dim=1, end_dim=-1)
    (1): Linear(in_features=10752, out_features=4096, bias=True)
    (2): ReLU(inplace=True)
    (3): Dropout(p=0.0, inplace=False)
    (4): Linear(in_features=4096, out_features=4096, bias=True)
    (5): ReLU(inplace=True)
    (6): Dropout(p=0.0, inplace=False)
  )
  (heads): ModuleDict(
    (bytes_2): Linear(in_features=4096, out_features=256, bias=True)
  )
)
Number of parameters: 66652544
Training classifier...
VGG(
  (fe): Sequential(
    (0): Dropout(p=0.0, inplace=False)
    (1): Conv1d(1, 64, kernel_size=(11,), stride=(1,), padding=(5,))
    (2): ReLU(inplace=True)
    (3): AvgPool1d(kernel_size=(2,), stride=(2,), padding=(0,))
    (4): Conv1d(64, 128, kernel_size=(11,), stride=(1,), padding=(5,))
    (5): ReLU(inplace=True)
    (6): AvgPool1d(kernel_size=(2,), stride=(2,), padding=(0,))
    (7): Conv1d(128, 256, kernel_size=(11,), stride=(1,), padding=(5,))
    (8): ReLU(inplace=True)
    (9): AvgPool1d(kernel_size=(2,), stride=(2,), padding=(0,))
    (10): Conv1d(256, 512, kernel_size=(11,), stride=(1,), padding=(5,))
    (11): ReLU(inplace=True)
    (12): AvgPool1d(kernel_size=(2,), stride=(2,), padding=(0,))
    (13): Conv1d(512, 512, kernel_size=(11,), stride=(1,), padding=(5,))
    (14): ReLU(inplace=True)
    (15): AvgPool1d(kernel_size=(2,), stride=(2,), padding=(0,))
    (16): Flatten(start_dim=1, end_dim=-1)
  )
  (pre_head): Sequential(
    (0): Flatten(start_dim=1, end_dim=-1)
    (1): Linear(in_features=10752, out_features=4096, bias=True)
    (2): ReLU(inplace=True)
    (3): Dropout(p=0.0, inplace=False)
    (4): Linear(in_features=4096, out_features=4096, bias=True)
    (5): ReLU(inplace=True)
    (6): Dropout(p=0.0, inplace=False)
  )
  (heads): ModuleDict(
    (bytes_2): Linear(in_features=4096, out_features=256, bias=True)
  )
)
Number of parameters: 66652544
Traceback (most recent call last):
  File "/home/min/a/jgammell/anaconda3/envs/sca_defense/lib/python3.8/multiprocessing/queues.py", line 245, in _feed
    send_bytes(obj)
  File "/home/min/a/jgammell/anaconda3/envs/sca_defense/lib/python3.8/multiprocessing/connection.py", line 200, in send_bytes
    self._send_bytes(m[offset:offset + size])
…
wandb:  $ pip install wandb --upgrade
wandb: Tracking run with wandb version 0.13.10
wandb: Run data is saved locally in /local/a/jgammell/dlsca_architecture_comparison/wandb/run-20230609_010207-2gy655ed
wandb: Run `wandb offline` to turn off syncing.
wandb: Syncing run glorious-sweep-13
wandb: ⭐️ View project at https://wandb.ai/jgammell/ascad_vgg__sam
wandb: 🧹 View sweep at https://wandb.ai/jgammell/ascad_vgg__sam/sweeps/do4w15f0
wandb: 🚀 View run at https://wandb.ai/jgammell/ascad_vgg__sam/runs/2gy655ed
Training classifier...
VGG(
  (fe): Sequential(
    (0): Dropout(p=0.0, inplace=False)
    (1): Conv1d(1, 64, kernel_size=(11,), stride=(1,), padding=(5,))
    (2): ReLU(inplace=True)
    (3): AvgPool1d(kernel_size=(2,), stride=(2,), padding=(0,))
    (4): Conv1d(64, 128, kernel_size=(11,), stride=(1,), padding=(5,))
    (5): ReLU(inplace=True)
    (6): AvgPool1d(kernel_size=(2,), stride=(2,), padding=(0,))
    (7): Conv1d(128, 256, kernel_size=(11,), stride=(1,), padding=(5,))
    (8): ReLU(inplace=True)
    (9): AvgPool1d(kernel_size=(2,), stride=(2,), padding=(0,))
    (10): Conv1d(256, 512, kernel_size=(11,), stride=(1,), padding=(5,))
    (11): ReLU(inplace=True)
    (12): AvgPool1d(kernel_size=(2,), stride=(2,), padding=(0,))
    (13): Conv1d(512, 512, kernel_size=(11,), stride=(1,), padding=(5,))
    (14): ReLU(inplace=True)
    (15): AvgPool1d(kernel_size=(2,), stride=(2,), padding=(0,))
    (16): Flatten(start_dim=1, end_dim=-1)
  )
  (pre_head): Sequential(
    (0): Flatten(start_dim=1, end_dim=-1)
    (1): Linear(in_features=10752, out_features=4096, bias=True)
    (2): ReLU(inplace=True)
    (3): Dropout(p=0.0, inplace=False)
    (4): Linear(in_features=4096, out_features=4096, bias=True)
    (5): ReLU(inplace=True)
    (6): Dropout(p=0.0, inplace=False)
  )
  (heads): ModuleDict(
    (bytes_2): Linear(in_features=4096, out_features=256, bias=True)
  )
)
Number of parameters: 66652544
Epoch 99 completed.
train weight_norm: 151.95313133402294
train grad_norm: 0.37690014172889374
train loss: 5.541421708028028 (5.541421708028028 -- 5.541421708028028)
train acc: 0.004453767345369954 (0.004453767345369954 -- 0.004976114649681528)
train soft_acc: 0.003931420041058379 (0.003931420041058379 -- 0.003931420041058379)
…
