…
wandb:  $ pip install wandb --upgrade
wandb: Tracking run with wandb version 0.13.10
wandb: Run data is saved locally in /local/a/jgammell/dlsca_architecture_comparison/wandb/run-20230607_151418-izmusihj
wandb: Run `wandb offline` to turn off syncing.
wandb: Syncing run stilted-sweep-6
wandb: ⭐️ View project at https://wandb.ai/jgammell/ascad_vgg__lr_sweep
wandb: 🧹 View sweep at https://wandb.ai/jgammell/ascad_vgg__lr_sweep/sweeps/di8unzi5
wandb: 🚀 View run at https://wandb.ai/jgammell/ascad_vgg__lr_sweep/runs/izmusihj
Training classifier...
VGG(
  (fe): Sequential(
    (0): Dropout(p=0.0, inplace=False)
    (1): Conv1d(1, 64, kernel_size=(11,), stride=(1,), padding=(5,))
    (2): ReLU(inplace=True)
    (3): AvgPool1d(kernel_size=(2,), stride=(2,), padding=(0,))
    (4): Conv1d(64, 128, kernel_size=(11,), stride=(1,), padding=(5,))
    (5): ReLU(inplace=True)
    (6): AvgPool1d(kernel_size=(2,), stride=(2,), padding=(0,))
    (7): Conv1d(128, 256, kernel_size=(11,), stride=(1,), padding=(5,))
    (8): ReLU(inplace=True)
    (9): AvgPool1d(kernel_size=(2,), stride=(2,), padding=(0,))
    (10): Conv1d(256, 512, kernel_size=(11,), stride=(1,), padding=(5,))
    (11): ReLU(inplace=True)
    (12): AvgPool1d(kernel_size=(2,), stride=(2,), padding=(0,))
    (13): Conv1d(512, 512, kernel_size=(11,), stride=(1,), padding=(5,))
    (14): ReLU(inplace=True)
    (15): AvgPool1d(kernel_size=(2,), stride=(2,), padding=(0,))
    (16): Flatten(start_dim=1, end_dim=-1)
  )
  (pre_head): Sequential(
    (0): Flatten(start_dim=1, end_dim=-1)
    (1): Linear(in_features=10752, out_features=4096, bias=True)
    (2): ReLU(inplace=True)
    (3): Dropout(p=0.0, inplace=False)
    (4): Linear(in_features=4096, out_features=4096, bias=True)
    (5): ReLU(inplace=True)
    (6): Dropout(p=0.0, inplace=False)
  )
  (heads): ModuleDict(
    (bytes_2): Linear(in_features=4096, out_features=256, bias=True)
  )
)
Number of parameters: 66652544
Training classifier...
VGG(
  (fe): Sequential(
    (0): Dropout(p=0.0, inplace=False)
    (1): Conv1d(1, 64, kernel_size=(11,), stride=(1,), padding=(5,))
    (2): ReLU(inplace=True)
    (3): AvgPool1d(kernel_size=(2,), stride=(2,), padding=(0,))
    (4): Conv1d(64, 128, kernel_size=(11,), stride=(1,), padding=(5,))
    (5): ReLU(inplace=True)
    (6): AvgPool1d(kernel_size=(2,), stride=(2,), padding=(0,))
    (7): Conv1d(128, 256, kernel_size=(11,), stride=(1,), padding=(5,))
    (8): ReLU(inplace=True)
    (9): AvgPool1d(kernel_size=(2,), stride=(2,), padding=(0,))
    (10): Conv1d(256, 512, kernel_size=(11,), stride=(1,), padding=(5,))
    (11): ReLU(inplace=True)
    (12): AvgPool1d(kernel_size=(2,), stride=(2,), padding=(0,))
    (13): Conv1d(512, 512, kernel_size=(11,), stride=(1,), padding=(5,))
    (14): ReLU(inplace=True)
    (15): AvgPool1d(kernel_size=(2,), stride=(2,), padding=(0,))
    (16): Flatten(start_dim=1, end_dim=-1)
  )
  (pre_head): Sequential(
    (0): Flatten(start_dim=1, end_dim=-1)
    (1): Linear(in_features=10752, out_features=4096, bias=True)
    (2): ReLU(inplace=True)
    (3): Dropout(p=0.0, inplace=False)
    (4): Linear(in_features=4096, out_features=4096, bias=True)
    (5): ReLU(inplace=True)
    (6): Dropout(p=0.0, inplace=False)
  )
  (heads): ModuleDict(
    (bytes_2): Linear(in_features=4096, out_features=256, bias=True)
  )
)
Number of parameters: 66652544
Training classifier...
VGG(
  (fe): Sequential(
    (0): Dropout(p=0.0, inplace=False)
    (1): Conv1d(1, 64, kernel_size=(11,), stride=(1,), padding=(5,))
    (2): ReLU(inplace=True)
    (3): AvgPool1d(kernel_size=(2,), stride=(2,), padding=(0,))
    (4): Conv1d(64, 128, kernel_size=(11,), stride=(1,), padding=(5,))
    (5): ReLU(inplace=True)
    (6): AvgPool1d(kernel_size=(2,), stride=(2,), padding=(0,))
    (7): Conv1d(128, 256, kernel_size=(11,), stride=(1,), padding=(5,))
    (8): ReLU(inplace=True)
    (9): AvgPool1d(kernel_size=(2,), stride=(2,), padding=(0,))
    (10): Conv1d(256, 512, kernel_size=(11,), stride=(1,), padding=(5,))
    (11): ReLU(inplace=True)
    (12): AvgPool1d(kernel_size=(2,), stride=(2,), padding=(0,))
    (13): Conv1d(512, 512, kernel_size=(11,), stride=(1,), padding=(5,))
    (14): ReLU(inplace=True)
    (15): AvgPool1d(kernel_size=(2,), stride=(2,), padding=(0,))
    (16): Flatten(start_dim=1, end_dim=-1)
  )
  (pre_head): Sequential(
    (0): Flatten(start_dim=1, end_dim=-1)
    (1): Linear(in_features=10752, out_features=4096, bias=True)
    (2): ReLU(inplace=True)
    (3): Dropout(p=0.0, inplace=False)
    (4): Linear(in_features=4096, out_features=4096, bias=True)
    (5): ReLU(inplace=True)
    (6): Dropout(p=0.0, inplace=False)
  )
  (heads): ModuleDict(
    (bytes_2): Linear(in_features=4096, out_features=256, bias=True)
  )
)
Number of parameters: 66652544
Training classifier...
VGG(
  (fe): Sequential(
    (0): Dropout(p=0.0, inplace=False)
    (1): Conv1d(1, 64, kernel_size=(11,), stride=(1,), padding=(5,))
    (2): ReLU(inplace=True)
    (3): AvgPool1d(kernel_size=(2,), stride=(2,), padding=(0,))
    (4): Conv1d(64, 128, kernel_size=(11,), stride=(1,), padding=(5,))
    (5): ReLU(inplace=True)
    (6): AvgPool1d(kernel_size=(2,), stride=(2,), padding=(0,))
    (7): Conv1d(128, 256, kernel_size=(11,), stride=(1,), padding=(5,))
    (8): ReLU(inplace=True)
    (9): AvgPool1d(kernel_size=(2,), stride=(2,), padding=(0,))
    (10): Conv1d(256, 512, kernel_size=(11,), stride=(1,), padding=(5,))
    (11): ReLU(inplace=True)
    (12): AvgPool1d(kernel_size=(2,), stride=(2,), padding=(0,))
    (13): Conv1d(512, 512, kernel_size=(11,), stride=(1,), padding=(5,))
    (14): ReLU(inplace=True)
    (15): AvgPool1d(kernel_size=(2,), stride=(2,), padding=(0,))
    (16): Flatten(start_dim=1, end_dim=-1)
  )
  (pre_head): Sequential(
    (0): Flatten(start_dim=1, end_dim=-1)
    (1): Linear(in_features=10752, out_features=4096, bias=True)
    (2): ReLU(inplace=True)
    (3): Dropout(p=0.0, inplace=False)
    (4): Linear(in_features=4096, out_features=4096, bias=True)
    (5): ReLU(inplace=True)
    (6): Dropout(p=0.0, inplace=False)
  )
  (heads): ModuleDict(
    (bytes_2): Linear(in_features=4096, out_features=256, bias=True)
  )
)
Number of parameters: 66652544
Training classifier...
VGG(
  (fe): Sequential(
    (0): Dropout(p=0.0, inplace=False)
    (1): Conv1d(1, 64, kernel_size=(11,), stride=(1,), padding=(5,))
    (2): ReLU(inplace=True)
    (3): AvgPool1d(kernel_size=(2,), stride=(2,), padding=(0,))
    (4): Conv1d(64, 128, kernel_size=(11,), stride=(1,), padding=(5,))
    (5): ReLU(inplace=True)
    (6): AvgPool1d(kernel_size=(2,), stride=(2,), padding=(0,))
    (7): Conv1d(128, 256, kernel_size=(11,), stride=(1,), padding=(5,))
    (8): ReLU(inplace=True)
    (9): AvgPool1d(kernel_size=(2,), stride=(2,), padding=(0,))
    (10): Conv1d(256, 512, kernel_size=(11,), stride=(1,), padding=(5,))
    (11): ReLU(inplace=True)
    (12): AvgPool1d(kernel_size=(2,), stride=(2,), padding=(0,))
    (13): Conv1d(512, 512, kernel_size=(11,), stride=(1,), padding=(5,))
    (14): ReLU(inplace=True)
    (15): AvgPool1d(kernel_size=(2,), stride=(2,), padding=(0,))
    (16): Flatten(start_dim=1, end_dim=-1)
  )
  (pre_head): Sequential(
    (0): Flatten(start_dim=1, end_dim=-1)
    (1): Linear(in_features=10752, out_features=4096, bias=True)
    (2): ReLU(inplace=True)
    (3): Dropout(p=0.0, inplace=False)
    (4): Linear(in_features=4096, out_features=4096, bias=True)
    (5): ReLU(inplace=True)
    (6): Dropout(p=0.0, inplace=False)
  )
  (heads): ModuleDict(
    (bytes_2): Linear(in_features=4096, out_features=256, bias=True)
  )
)
Number of parameters: 66652544
Training classifier...
VGG(
  (fe): Sequential(
    (0): Dropout(p=0.0, inplace=False)
    (1): Conv1d(1, 64, kernel_size=(11,), stride=(1,), padding=(5,))
    (2): ReLU(inplace=True)
    (3): AvgPool1d(kernel_size=(2,), stride=(2,), padding=(0,))
    (4): Conv1d(64, 128, kernel_size=(11,), stride=(1,), padding=(5,))
    (5): ReLU(inplace=True)
    (6): AvgPool1d(kernel_size=(2,), stride=(2,), padding=(0,))
    (7): Conv1d(128, 256, kernel_size=(11,), stride=(1,), padding=(5,))
    (8): ReLU(inplace=True)
    (9): AvgPool1d(kernel_size=(2,), stride=(2,), padding=(0,))
    (10): Conv1d(256, 512, kernel_size=(11,), stride=(1,), padding=(5,))
    (11): ReLU(inplace=True)
    (12): AvgPool1d(kernel_size=(2,), stride=(2,), padding=(0,))
    (13): Conv1d(512, 512, kernel_size=(11,), stride=(1,), padding=(5,))
    (14): ReLU(inplace=True)
    (15): AvgPool1d(kernel_size=(2,), stride=(2,), padding=(0,))
    (16): Flatten(start_dim=1, end_dim=-1)
  )
  (pre_head): Sequential(
    (0): Flatten(start_dim=1, end_dim=-1)
    (1): Linear(in_features=10752, out_features=4096, bias=True)
    (2): ReLU(inplace=True)
    (3): Dropout(p=0.0, inplace=False)
    (4): Linear(in_features=4096, out_features=4096, bias=True)
    (5): ReLU(inplace=True)
    (6): Dropout(p=0.0, inplace=False)
  )
  (heads): ModuleDict(
    (bytes_2): Linear(in_features=4096, out_features=256, bias=True)
  )
)
Number of parameters: 66652544
New best model found.
Epoch 1 completed.
train weight_norm: 90.04353142386175
train grad_norm: 0.08173571352666029
train loss: 5.545265723358501 (5.545265723358501 -- 5.545265723358501)
train acc: 0.003923681407177355 (0.003923681407177355 -- 0.003940873579545454)
train soft_acc: 0.003906489234809255 (0.003906489234809255 -- 0.003906489234809255)
…
wandb:  $ pip install wandb --upgrade
wandb: Tracking run with wandb version 0.13.10
wandb: Run data is saved locally in /local/a/jgammell/dlsca_architecture_comparison/wandb/run-20230607_185718-6wz3tlp0
wandb: Run `wandb offline` to turn off syncing.
wandb: Syncing run fluent-sweep-8
wandb: ⭐️ View project at https://wandb.ai/jgammell/ascad_vgg__lr_sweep
wandb: 🧹 View sweep at https://wandb.ai/jgammell/ascad_vgg__lr_sweep/sweeps/di8unzi5
wandb: 🚀 View run at https://wandb.ai/jgammell/ascad_vgg__lr_sweep/runs/6wz3tlp0
Training classifier...
VGG(
  (fe): Sequential(
    (0): Dropout(p=0.0, inplace=False)
    (1): Conv1d(1, 64, kernel_size=(11,), stride=(1,), padding=(5,))
    (2): ReLU(inplace=True)
    (3): AvgPool1d(kernel_size=(2,), stride=(2,), padding=(0,))
    (4): Conv1d(64, 128, kernel_size=(11,), stride=(1,), padding=(5,))
    (5): ReLU(inplace=True)
    (6): AvgPool1d(kernel_size=(2,), stride=(2,), padding=(0,))
    (7): Conv1d(128, 256, kernel_size=(11,), stride=(1,), padding=(5,))
    (8): ReLU(inplace=True)
    (9): AvgPool1d(kernel_size=(2,), stride=(2,), padding=(0,))
    (10): Conv1d(256, 512, kernel_size=(11,), stride=(1,), padding=(5,))
    (11): ReLU(inplace=True)
    (12): AvgPool1d(kernel_size=(2,), stride=(2,), padding=(0,))
    (13): Conv1d(512, 512, kernel_size=(11,), stride=(1,), padding=(5,))
    (14): ReLU(inplace=True)
    (15): AvgPool1d(kernel_size=(2,), stride=(2,), padding=(0,))
    (16): Flatten(start_dim=1, end_dim=-1)
  )
  (pre_head): Sequential(
    (0): Flatten(start_dim=1, end_dim=-1)
    (1): Linear(in_features=10752, out_features=4096, bias=True)
    (2): ReLU(inplace=True)
    (3): Dropout(p=0.0, inplace=False)
    (4): Linear(in_features=4096, out_features=4096, bias=True)
    (5): ReLU(inplace=True)
    (6): Dropout(p=0.0, inplace=False)
  )
  (heads): ModuleDict(
    (bytes_2): Linear(in_features=4096, out_features=256, bias=True)
  )
)
Number of parameters: 66652544
Training classifier...
VGG(
  (fe): Sequential(
    (0): Dropout(p=0.0, inplace=False)
    (1): Conv1d(1, 64, kernel_size=(11,), stride=(1,), padding=(5,))
    (2): ReLU(inplace=True)
    (3): AvgPool1d(kernel_size=(2,), stride=(2,), padding=(0,))
    (4): Conv1d(64, 128, kernel_size=(11,), stride=(1,), padding=(5,))
    (5): ReLU(inplace=True)
    (6): AvgPool1d(kernel_size=(2,), stride=(2,), padding=(0,))
    (7): Conv1d(128, 256, kernel_size=(11,), stride=(1,), padding=(5,))
    (8): ReLU(inplace=True)
    (9): AvgPool1d(kernel_size=(2,), stride=(2,), padding=(0,))
    (10): Conv1d(256, 512, kernel_size=(11,), stride=(1,), padding=(5,))
    (11): ReLU(inplace=True)
    (12): AvgPool1d(kernel_size=(2,), stride=(2,), padding=(0,))
    (13): Conv1d(512, 512, kernel_size=(11,), stride=(1,), padding=(5,))
    (14): ReLU(inplace=True)
    (15): AvgPool1d(kernel_size=(2,), stride=(2,), padding=(0,))
    (16): Flatten(start_dim=1, end_dim=-1)
  )
  (pre_head): Sequential(
    (0): Flatten(start_dim=1, end_dim=-1)
    (1): Linear(in_features=10752, out_features=4096, bias=True)
    (2): ReLU(inplace=True)
    (3): Dropout(p=0.0, inplace=False)
    (4): Linear(in_features=4096, out_features=4096, bias=True)
    (5): ReLU(inplace=True)
    (6): Dropout(p=0.0, inplace=False)
  )
  (heads): ModuleDict(
    (bytes_2): Linear(in_features=4096, out_features=256, bias=True)
  )
)
Number of parameters: 66652544
wandb: wandb version 0.15.4 is available!  To upgrade, please run:
wandb:  $ pip install wandb --upgrade
wandb: Tracking run with wandb version 0.13.10
wandb: Run data is saved locally in /local/a/jgammell/dlsca_architecture_comparison/wandb/run-20230607_185720-t4793kuj
wandb: Run `wandb offline` to turn off syncing.
wandb: Syncing run graceful-sweep-11
wandb: ⭐️ View project at https://wandb.ai/jgammell/ascad_vgg__lr_sweep
wandb: 🧹 View sweep at https://wandb.ai/jgammell/ascad_vgg__lr_sweep/sweeps/di8unzi5
wandb: 🚀 View run at https://wandb.ai/jgammell/ascad_vgg__lr_sweep/runs/t4793kuj
Training classifier...
VGG(
  (fe): Sequential(
    (0): Dropout(p=0.0, inplace=False)
    (1): Conv1d(1, 64, kernel_size=(11,), stride=(1,), padding=(5,))
    (2): ReLU(inplace=True)
    (3): AvgPool1d(kernel_size=(2,), stride=(2,), padding=(0,))
    (4): Conv1d(64, 128, kernel_size=(11,), stride=(1,), padding=(5,))
    (5): ReLU(inplace=True)
    (6): AvgPool1d(kernel_size=(2,), stride=(2,), padding=(0,))
    (7): Conv1d(128, 256, kernel_size=(11,), stride=(1,), padding=(5,))
    (8): ReLU(inplace=True)
    (9): AvgPool1d(kernel_size=(2,), stride=(2,), padding=(0,))
    (10): Conv1d(256, 512, kernel_size=(11,), stride=(1,), padding=(5,))
    (11): ReLU(inplace=True)
    (12): AvgPool1d(kernel_size=(2,), stride=(2,), padding=(0,))
    (13): Conv1d(512, 512, kernel_size=(11,), stride=(1,), padding=(5,))
    (14): ReLU(inplace=True)
    (15): AvgPool1d(kernel_size=(2,), stride=(2,), padding=(0,))
    (16): Flatten(start_dim=1, end_dim=-1)
  )
  (pre_head): Sequential(
    (0): Flatten(start_dim=1, end_dim=-1)
    (1): Linear(in_features=10752, out_features=4096, bias=True)
    (2): ReLU(inplace=True)
    (3): Dropout(p=0.0, inplace=False)
    (4): Linear(in_features=4096, out_features=4096, bias=True)
    (5): ReLU(inplace=True)
    (6): Dropout(p=0.0, inplace=False)
  )
  (heads): ModuleDict(
    (bytes_2): Linear(in_features=4096, out_features=256, bias=True)
  )
)
Number of parameters: 66652544
wandb: wandb version 0.15.4 is available!  To upgrade, please run:
wandb:  $ pip install wandb --upgrade
wandb: Tracking run with wandb version 0.13.10
wandb: Run data is saved locally in /local/a/jgammell/dlsca_architecture_comparison/wandb/run-20230607_185724-eyfgmpvo
wandb: Run `wandb offline` to turn off syncing.
…
